Overriding model.yaml nc=80 with nc=2
                 from  n    params  module                                  arguments
  0                -1  1      5280  models.common.Conv                      [3, 48, 6, 2, 2]
  1                -1  1     41664  models.common.Conv                      [48, 96, 3, 2]
  2                -1  2     65280  models.common.C3                        [96, 96, 2]
  3                -1  1    166272  models.common.Conv                      [96, 192, 3, 2]
  4                -1  4    444672  models.common.C3                        [192, 192, 4]
  5                -1  1    664320  models.common.Conv                      [192, 384, 3, 2]
  6                -1  6   2512896  models.common.C3                        [384, 384, 6]
  7                -1  1   2655744  models.common.Conv                      [384, 768, 3, 2]
  8                -1  2   4134912  models.common.C3                        [768, 768, 2]
  9                -1  1   1179648  models.common.SE                        [768, 768, 1]
 10                -1  1   1476864  models.common.SPPF                      [768, 768, 5]
 11                -1  1    295680  models.common.Conv                      [768, 384, 1, 1]
 12                -1  1         0  torch.nn.modules.upsampling.Upsample    [None, 2, 'nearest']
 13           [-1, 6]  1         0  models.common.Concat                    [1]
 14                -1  2   1182720  models.common.C3                        [768, 384, 2, False]
 15                -1  1     74112  models.common.Conv                      [384, 192, 1, 1]
 16                -1  1         0  torch.nn.modules.upsampling.Upsample    [None, 2, 'nearest']
 17           [-1, 4]  1         0  models.common.Concat                    [1]
 18                -1  2    296448  models.common.C3                        [384, 192, 2, False]
 19                -1  1    332160  models.common.Conv                      [192, 192, 3, 2]
 20          [-1, 15]  1         0  models.common.Concat                    [1]
 21                -1  2   1035264  models.common.C3                        [384, 384, 2, False]
 22                -1  1   1327872  models.common.Conv                      [384, 384, 3, 2]
 23          [-1, 11]  1         0  models.common.Concat                    [1]
 24                -1  2   4134912  models.common.C3                        [768, 768, 2, False]
 25      [18, 21, 24]  1    755667  models.yolo.Detect                      [2, [[10, 13, 16, 30, 33, 23], [30, 61, 62, 45, 59, 119], [116, 90, 156, 198, 373, 326]], [192, 384, 768]]
/home/scau/anaconda3/envs/yolov5/lib/python3.7/site-packages/thop/vision/basic_hooks.py:92: UserWarning: __floordiv__ is deprecated, and its behavior will change in a future version of pytorch. It currently rounds toward 0 (like the 'trunc' function NOT 'floor'). This results in incorrect rounding for negative values. To keep the current behavior, use torch.div(a, b, rounding_mode='trunc'), or for actual floor division, use torch.div(a, b, rounding_mode='floor').
…
