# YOLOv5 🚀 by Ultralytics, GPL-3.0 license
# by迪菲赫尔曼 ，仅供学习交流，别tm倒卖！
# Parameters
nc: 80  # number of classes
depth_multiple: 0.67  # model depth multiple
width_multiple: 0.75  # layer channel multiple
anchors:
  - [10,13, 16,30, 33,23]  # P3/8
  - [30,61, 62,45, 59,119]  # P4/16
  - [116,90, 156,198, 373,326]  # P5/32

# YOLOv5 v6.0 backbone
backbone:
  # [from, number, module, args]
  [[-1, 1, Conv, [64, 6, 2, 2]],  # 0-P1/2
   [-1, 1, Conv, [128, 3, 2]],  # 1-P2/4
   [-1, 3, C3, [128]],
   [-1, 1, Conv, [256, 3, 2]],  # 3-P3/8
   [-1, 6, C3, [256]],
   [-1, 1, Conv, [512, 3, 2]],  # 5-P4/16
   [-1, 9, C3, [512]],
   [-1, 1, Conv, [1024, 3, 2]],  # 7-P5/32
   [-1, 3, C3, [1024]],
   [-1, 1, SPPF, [1024, 5]],  # 9
  ]


# YOLOv5 v6.0 head
head:
  [[-1, 1, Conv, [512, 1, 1]], #10
   [-1, 1, nn.ConvTranspose2d, [512, 2, 2, 0, 0, 512]], #11
   [ 6, 1, Conv, [256, 1,1]],  #12
   [ 4, 1, Conv, [128, 1,1]],  #13
   [-1, 1, Conv, [128, 3,2]],  #14
   [[11, 12, 14], 1, Concat, [1]],  # cat backbone P4  #15

   [-1, 1, Conv, [512, 1,1]],    # 16
   [-1, 3, C3  , [512, False]],  # 17
   [-1, 1, Conv, [256, 1, 1]],   # 18
   [-1, 1, nn.ConvTranspose2d, [256, 2, 2, 0, 0, 256]], #19
   [ 4, 1, Conv, [ 128, 1,1 ] ],  #20
   [ 2, 1, Conv, [ 64, 1,1 ] ],   #21
   [-1, 1, Conv, [ 64, 3,2 ] ],   #22
   [[19, 20, 22], 1, Concat, [1]],  #23  cat backbone P3
   [-1, 1, Conv, [256, 1,1]],    #24
   [-1, 3, C3  , [256, False]],  #25 out

   [-1, 1, Conv, [256, 3, 2]],   #26
   [[-1, 18], 1, Concat, [1]],   #27  cat head P4
   [-1, 3, C3  , [512, False]],  #28 out (P4/16-medium)

   [-1, 1, Conv, [512, 3, 2]],   #29
   [[-1, 10], 1, Concat, [1]],   #30 cat head P5
   [-1, 3, C3  , [1024, False]], # 31 (P5/32-large)

   [[25, 28, 31], 1, Detect, [nc, anchors]],  # Detect(P3, P4, P5)
  ]
